 % /Users/satish/ERA_V4/S5CNN_Backprop/Assignment5/.venv/bin/python /Users/satish/ERA_V4/S5CNN_Backp
rop/Assignment5/ERAV4S5CNNwithBN.py
----------------------------------------------------------------
        Layer (type)               Output Shape         Param #
================================================================
            Conv2d-1            [-1, 8, 26, 26]              80
              ReLU-2            [-1, 8, 26, 26]               0
       BatchNorm2d-3            [-1, 8, 26, 26]              16
            Conv2d-4           [-1, 16, 24, 24]           1,168
              ReLU-5           [-1, 16, 24, 24]               0
       BatchNorm2d-6           [-1, 16, 24, 24]              32
         MaxPool2d-7           [-1, 16, 12, 12]               0
           Dropout-8           [-1, 16, 12, 12]               0
            Conv2d-9           [-1, 32, 12, 12]             544
             ReLU-10           [-1, 32, 12, 12]               0
      BatchNorm2d-11           [-1, 32, 12, 12]              64
           Conv2d-12           [-1, 16, 10, 10]           4,624
             ReLU-13           [-1, 16, 10, 10]               0
      BatchNorm2d-14           [-1, 16, 10, 10]              32
           Conv2d-15              [-1, 8, 8, 8]           1,160
             ReLU-16              [-1, 8, 8, 8]               0
      BatchNorm2d-17              [-1, 8, 8, 8]              16
          Dropout-18              [-1, 8, 8, 8]               0
           Conv2d-19             [-1, 16, 8, 8]             144
             ReLU-20             [-1, 16, 8, 8]               0
      BatchNorm2d-21             [-1, 16, 8, 8]              32
           Conv2d-22              [-1, 8, 6, 6]           1,160
             ReLU-23              [-1, 8, 6, 6]               0
      BatchNorm2d-24              [-1, 8, 6, 6]              16
          Dropout-25              [-1, 8, 6, 6]               0
           Linear-26                   [-1, 10]           2,890
================================================================
Total params: 11,978
Trainable params: 11,978
Non-trainable params: 0
----------------------------------------------------------------
Input size (MB): 0.00
Forward/backward pass size (MB): 0.56
Params size (MB): 0.05
Estimated Total Size (MB): 0.61
----------------------------------------------------------------
epoch = 1 loss=0.06884723901748657 batch_id=468: 100%|████████████████████████████████████████████████████████████████| 469/469 [00:21<00:00, 21.38it/s]
…
